(39209, 32, 32, 3) (39209,)
X_train.shape (27446, 32, 32, 3)
X_valid.shape (11763, 32, 32, 3)
y_train.shape (27446,)
y_valid.shape (11763,)
Model: "sequential"
_________________________________________________________________
 Layer (type)                Output Shape              Param #
=================================================================
 conv2d (Conv2D)             (None, 30, 30, 16)        448
 max_pooling2d (MaxPooling2D  (None, 15, 15, 16)       0
 )
 batch_normalization (BatchN  (None, 15, 15, 16)       64
 ormalization)
 conv2d_1 (Conv2D)           (None, 13, 13, 128)       18560
 max_pooling2d_1 (MaxPooling  (None, 6, 6, 128)        0
 2D)
 batch_normalization_1 (Batc  (None, 6, 6, 128)        512
 hNormalization)
 flatten (Flatten)           (None, 4608)              0
 dense (Dense)               (None, 256)               1179904
 batch_normalization_2 (Batc  (None, 256)              1024
 hNormalization)
 dropout (Dropout)           (None, 256)               0
 dense_1 (Dense)             (None, 43)                11051
=================================================================
Total params: 1,211,563
Trainable params: 1,210,763
Non-trainable params: 800
_________________________________________________________________
None
Epoch 1/10
  3/858 [..............................] - ETA: 32s - loss: 4.6469 - accuracy: 0.1042


















858/858 [==============================] - ETA: 0s - loss: 0.4927 - accuracy: 0.8711
…
